petverse/assets/models/breed_care_model.tflite (tflite, 58468 bytes, 6 tensors)

arith.constant f4 [11, 64]
00000000: f931 ce3d e4a0 fa3e 6cc6 cdbd 6b37 413e
00000010: 2943 953e 71de 503e a5ba 8a3e 26f6 f0bc
00000020: a3d6 143e 68fd b83c 7ef3 ad3e bf26 3a3e
00000030: 3f3e 9b3e bed7 c43d de5a 7d3e f440 a63d
00000040: f687 a53d 511b d23e 46ba 503e 6dd6 a23e
00000050: c038 b1bc 9bc5 ee3e c136 a23d 0931 243e
00000060: 065b 813e a867 b83e 6d99 ff3e 098e cf3d
00000070: 2a5e 7dbe c0f8 0ebe 0dab 40be 8194 0f3e
00000080: 6fcf ea3e 3743 7abe 34c3 a53d e35e 66bd
00000090: 11e8 8b3e 98e2 9c3e 1c2a d43e 3449 83bd
000000a0: c219 643d 4d35 dd3e 062f 533d 5235 57be
000000b0: a52e 8a3e de23 dd3e 6539 dc3e 3fd6 b63e
000000c0: 697a 25bd 2516 b83d 3da3 ec3e ac3d 67be
000000d0: 7c59 efbd c403 df3e 922f f03e 9f83 cf3e
000000e0: a8fe 723e 6ffa 1a3e 0e3c cf3e 1116 953e
000000f0: 221f ae3e 037a b43e b1e0 2f3e 1fd0 6d3e
00000100: a4c6 cc3c 7d66 d03d 0b3f 923d cb8e bf3e
00000110: 6f25 dd3e 9ba8 65bc 6942 3b3e eec8 b9bd
00000120: a086 d63e 1d5f a03e 1223 593d c38f bb3e
00000130: 93a4 5a3e 70ab ecbb b1c0 bb3e 8a41 d33d
00000140: b0cb 3a3e 9f6e 403c 1be7 2b3d 7937 383e
00000150: a462 87bd 11ee f63e bbdd 623e 4dc2 5d3e
00000160: 6a94 fb3e 5cee 103d 89ed 7f3e 223e 953d
00000170: a6fc ce3c 7074 cb3d f63f 843e 2548 d13e
00000180: ca75 333e 8d25 8cbe ad60 ca3e 10c7 0f3e
00000190: 7a67 023f 50b1 283e 5f60 953e e17e 823d
000001a0: 0d89 8e3e c648 b73e 6430 17be 3a8c 23bd
000001b0: be2b a33e 7a98 e13e 0920 463e aade 263e
000001c0: 2dc9 b73e 1b84 f33b c853 053f 566b 01be
000001d0: 6215 71be 6be1 cd3e 8688 13be 83b6 d63e
000001e0: cc88 8c3e 01c6 623e a41c a53e f3c4 113e
000001f0: 270e fd3e cba7 8a3e d69a ac3e 1502 9c3e
00000200: f854 bdbd 8f81 04bd bd53 783e 7ba0 9f3e
00000210: 9d97 983e e2c3 f53e ba85 da3d a668 023d
00000220: 6abc f13e 20a2 c53e 2fb3 e23e f3ac 8b3c
00000230: 4dbe 8c3e 563a 4c3e 1832 abbb 6f7c 843e
00000240: 30e9 8a3d 0ec7 d93e d607 cf3e a46d d7bd
00000250: 10db 68be 930e a73e 06f5 b5bc cf56 a23e
00000260: 460f a03e b3fe 6a3e ba87 a33e 8bb9 203e
00000270: da8c 05be 3eaa 8e3e c50f e23e de18 cd3e
00000280: f62e b83e 25e8 973c 1651 e83e e062 cd3e
00000290: e0ca 893e 0546 52bd fa44 eb3e 4599 29be
000002a0: 5ed3 0ebd b75a e43e 0a93 0d3d 1938 9abd
000002b0: 17cc bd3e f3ad db3e 3265 2d3d 4f16 453d
000002c0: 0321 333e d5a1 fc3e 1ac5 843e 2a21 3e3e
000002d0: 5118 423e ead9 f03e aa40 73be 8d81 cd3e
000002e0: 9204 c33e 2b35 c53e 08c3 3abd 35d0 f93e
000002f0: 131d bc3e 66cf 563e 7143 113e 9b96 f63e
00000300: fe7f f53e 2c7c ca3e 5804 87be 660c 7b3e
00000310: 56f3 703e 8604 c33d 35e6 b23d 372e 1f3e
00000320: ab3d bbbd f615 793e c9c5 b73e 568c e53e
00000330: 3a9a 5dbe 20d2 173e bade ab3e 180b 373c
00000340: b9a7 9f3e 2448 47be 9024 c83e ff1c a63e
00000350: baab 293e 5ff7 c63e b3a5 61bd d951 f13e
00000360: 95f4 423e 171c f63e f271 db3e df5d 793e
00000370: a358 263e ceb5 05be 440e 7dbe d1b3 743e
00000380: 1eb1 833e 7b1c 52bd 26c8 9a3e 835f ca3e
00000390: 8787 e53e e6e7 da3e ddf5 aa3e 3aac 2d3e
000003a0: 9424 db3e 4d7d 053d b167 d93d 9804 31be
000003b0: 2767 843e 6d33 b33e d55a eb3d 69bf be3e
000003c0: eed3 f3bc 74d8 f93e 029a c83e c9c4 0c3e
000003d0: f2eb 13be aa61 283e b1e5 d13e e2c8 153e
000003e0: df7d af3e 1582 5c3d 9854 ef39 6b95 b03d
000003f0: 967e ed3e ca40 2e3e eaae e23e 0c7b b03e
0.10068125 0.48950875 -0.100476116 0.18868797 0.29152802 0.20397355 0.27095523 -0.029414248
0.14535002 0.022581771 0.33974832 0.18178843 0.30320928 0.09611462 0.24741694 0.081178576
0.08082573 0.41036466 0.20383558 0.3180422 -0.021633506 0.46635136 0.079206 0.1603433
0.25264758 0.36016583 0.49921742 0.10134513 -0.24742952 -0.13962078 -0.1881525 0.14021493
0.45861384 -0.24439703 0.08093873 -0.056242835 0.2732549 0.30641627 0.41438377 -0.06410447
0.055688627 0.43204728 0.051558517 -0.21016434 0.26988712 0.43191427 0.4301254 0.35710332
-0.040399943 0.08988599 0.4621829 -0.2258212 -0.1168699 0.4355756 0.46911293 0.40530106
0.23729956 0.15134595 0.40475506 0.29118398 0.34008127 0.35249338 0.17175557 0.23223923
0.024997063 0.10175798 0.07140931 0.3741363 0.43192622 -0.014017249 0.18287052 -0.090715274
0.41899586 0.31322566 0.05301196 0.3663312 0.21351843 -0.0072225854 0.3667045 0.10315235
0.18241763 0.011745124 0.041968446 0.17989911 -0.06610611 0.48228505 0.22154896 0.21656151
0.49136668 0.035383567 0.24992956 0.072872415 0.025266957 0.09934318 0.25830048 0.40875354
0.17525402 -0.273724 0.39526883 0.1404078 0.5093914 0.1647389 0.29175088 0.063718565
0.27838936 0.3579771 -0.14764553 -0.039928652 0.3186931 0.44061643 0.19348158 0.16295877
0.35895672 0.0074315197 0.52080965 -0.12638602 -0.23543313 0.40211043 -0.14407548 0.4193612
0.27448118 0.22145845 0.32248414 0.14235286 0.4942486 0.2708114 0.3371188 0.30470338
-0.09244722 -0.03235012 0.24250694 0.31177124 0.29803172 0.4800101 0.106700376 0.03183808
0.4721406 0.38600254 0.4427733 0.017050242 0.27488938 0.19944128 -0.0052244775 0.25876185
0.06782758 0.4253468 0.40435666 -0.10518959 -0.22739816 0.32628307 -0.022211563 0.31706855
0.31261653 0.22948723 0.3193949 0.15695779 -0.13042012 0.2786426 0.44152656 0.40058035
0.35973328 0.018543312 0.45374364 0.40114498 0.26912594 -0.051336307 0.45951062 -0.16562374
-0.034869544 0.4460046 0.034564056 -0.07530231 0.3706977 0.4290615 0.042332835 0.04811698
0.17493062 0.49342218 0.25931627 0.18567339 0.18954588 0.47041255 -0.23755136 0.40137902
0.38089424 0.38517126 -0.045596153 0.48791662 0.36740932 0.20977554 0.14185883 0.48161778
0.47949213 0.3954786 -0.26370502 0.24516448 0.23530325 0.09522347 0.08735315 0.15544973
-0.091426216 0.24324784 0.35893086 0.4483363 -0.21640864 0.1482625 0.33568364 0.011172079
0.3118265 -0.19461113 0.39090395 0.32443997 0.16569415 0.38860604 -0.055089664 0.47132757
0.19038613 0.48068306 0.4286037 0.24352215 0.1624475 -0.13057634 -0.24712473 0.2389672
0.25721067 -0.051296692 0.30230826 0.39525995 0.44829962 0.4275505 0.33390704 0.1696023
0.42801344 0.0325902 0.10615481 -0.17286909 0.2585995 0.35000172 0.11491934 0.3725541
-0.029764142 0.48797953 0.3918 0.13746943 -0.14445475 0.16443506 0.40995553 0.14627412
0.3427572 0.053834993 0.0004564866 0.08622249 0.4638564 0.17016903 0.44274074 0.34468877

arith.constant1 f4 [64, 128]
00000000: 4c3a 903e 0129 7a3e bd90 2f3d 322b 8f3e
00000010: 994d 493e 3187 2dbc 916f 803e 9b36 33bd
00000020: f770 9e3e 7a49 b53e 9b94 973e 5a90 353e
00000030: e82f b53d 3070 ab3e ddbf 9e3d caae 32bc
00000040: 53db b63e f1cb be3e 4a3c 923e af28 ed3d
00000050: 3299 c43d d85d 753d da5f 213e c49b ae3c
00000060: 37d0 113e e913 783e 77ff 933d 7fd7 d43c
00000070: 763c 8e3e 4d83 0c3e 4689 673e 73bb 3c3e
00000080: 4d42 7b3e 37cf c13b f8b1 943e 1a81 313e
00000090: 613f 983c 316c c93e a03f 653e 6e45 853d
000000a0: 2906 b03e 5c93 aa3c f4e5 7f3e 80aa e03d
000000b0: 798f 6e3d 0c42 b5bc 802b 253e 9e45 b03e
000000c0: 6111 733d ac41 d13a 5b59 923d dad0 403e
000000d0: d032 863e 1cd7 bb3e 48d8 a73d af12 a83c
000000e0: dc35 743e 1911 1f3c fc30 9e3e c116 923e
000000f0: 0b41 9f3e 6117 b73d f1b3 c33e 1cdc 85bc
00000100: 0393 edbc 2cec a33e 6682 a53e b72e 863e
00000110: 3f2c 513d 1d2a 5c3e 6856 123e c191 eb3d
00000120: e1e5 ba3d 9cb5 e33c b638 3c3e 75b1 8c3e
00000130: 6d1e e33d 2ab6 293e 7e47 a43c 0306 973e
00000140: 69b7 b43e e53b 1a3e ec0b a13e edb3 4d3e
00000150: e607 a13d 9961 443e e053 b23d bf1f 0c3e
00000160: 8627 2d3e a2e7 c43e 3b4c 263d a822 8c3e
00000170: 5efb 2d3e c0c3 c33e 84f0 223e 04c5 883e
00000180: 5e6e 653e 7ae3 613e 9bc7 9b3e 612b 563e
00000190: bea4 ac3d a207 b13e cc67 333a 55bb 683e
000001a0: 1131 003e b4fb 803e ffb9 2d3e c17b 3c3e
000001b0: 03fd 863e 2c35 e93d aba9 de3d 9f99 3e3d
000001c0: aba2 723e 6715 f23d 6554 d53d a3f2 3c3e
000001d0: bc59 a03e 834e 1a3e a1fc 803e 6131 113e
000001e0: 07ef 623d b3b5 c53d b721 f73c c48a 273e
000001f0: 81b7 f03c dd93 0b3e c301 113d 940d 823e
00000200: 9649 b63e 3584 b63e 2109 243e 49bb 6c3e
00000210: c85f 253e 068d 803b d393 da3d f1e3 b33e
00000220: c7ab 853e 5594 563e 3d1d e63d b1f6 bb3d
00000230: aef1 e43c 929d 0a3e 964d fd3c 8094 0b3e
00000240: 7192 243e 0736 0a3d 0b23 373d caad aa3e
00000250: 6db4 d33d 8ea2 673d 04e3 433e 679a a53e
00000260: b20d a23e ca7b 533e 403b 583e 14d9 b33e
00000270: 7565 8a3e fac2 a83e 3597 8d3e 59bf 9e3e
00000280: 74f1 6b3e d9bc 9d3e 9a94 183e 7c7e 763e
00000290: bc6a 973e fc93 8b3e 0c5d ff3d a321 8f3d
000002a0: 4d4f 8f3e 7be2 c13d cf36 593d 9ea0 b13e
000002b0: 6ffd 713e a9a7 b73e 0fb3 dd3d 51ec c03e
000002c0: 3a80 d63d 3367 a13e aac1 b63e 0796 ad3e
000002d0: 5c3f 093d 4a4e 313e 482e 8a3e 9725 3d3e
000002e0: 720d 5d3e 1ad1 863e 6d46 bf3d c69b aa3e
000002f0: c788 d43d 6741 933e e4d9 0b3e c429 2c3e
00000300: 3dbc 9b3e ba08 853e a229 553e 545d 183e
00000310: 70dc e43d ca86 593e 7939 a23e f299 193e
00000320: 2c72 0c3e dae2 983d 4e57 553e 61a6 9c3e
00000330: a9f3 dd3d 6cbd be3d 157d 8b3e 46a7 c33d
00000340: e26f 513e 572e a13e 403c c83c 9690 3c3e
00000350: caf2 8a3e b202 bf3e 1a56 993e 35fb 093e
00000360: 0467 3b3e 1d96 873e ebc4 933e bad0 943d
00000370: 180c 2e3e 6e72 a63e c7b7 593e d334 943e
00000380: d0db e43d b870 8c3e 6de2 bb3e 0c0a 923e
00000390: ddc6 923e 07d1 773d 23ef 4b3e 62c6 9c3e
000003a0: bb04 2b3e 51b5 733c d33d 6a3e 34e1 963e
000003b0: e40f ca3d 60d3 f73d d56c a03e aea6 5d3c
000003c0: 625a a23d c6c1 553e 8f8c 6c3d ae0e 603e
000003d0: 1178 9b3e a7eb 833c 111e c63d fc4e 3a3e
000003e0: e1d1 703e ac10 ad3d 3596 843e fb45 3e3e
000003f0: c03c 403d 69fb 233e d276 543d a48a 423e
0.28169477 0.24429704 0.042862643 0.27962643 0.19658507 -0.010591314 0.25085118 -0.043753248
0.3094556 0.3540762 0.29605564 0.17730847 0.08847028 0.3348403 0.07751439 -0.010905931
0.35714206 0.3726497 0.28561622 0.115800254 0.09599532 0.05990395 0.1575922 0.02131451
0.14239584 0.24226345 0.072264604 0.025981663 0.27780503 0.13721962 0.2261096 0.18430881
0.2453701 0.0059145945 0.2904203 0.17334405 0.018584909 0.39340356 0.22387552 0.06507383
0.343797 0.02082222 0.24990064 0.1097002 0.058242295 -0.02212622 0.16129875 0.34428114
0.059342746 0.0015965006 0.071459495 0.1882967 0.26210642 0.36687553 0.08195549 0.020516722
0.2384867 0.009708666 0.30896747 0.28532985 0.3110431 0.08940006 0.38223222 -0.016340308
-0.029000765 0.32016122 0.3232605 0.26207516 0.051067587 0.2150044 0.14290774 0.1150241
0.09125877 0.027796559 0.18381009 0.2747914 0.11089788 0.16573396 0.020053621 0.29496774
0.3529618 0.1506191 0.31454408 0.20088167 0.07862835 0.19177856 0.08707404 0.13683985
0.16909608 0.38457972 0.040600043 0.2737019 0.1699042 0.38235283 0.15912062 0.2671281
0.22405383 0.22059432 0.30425724 0.20914985 0.084298596 0.34576136 0.0006843775 0.22727711
0.12518717 0.25192034 0.16965483 0.18406583 0.26364908 0.11387095 0.10872205 0.046533223
0.23694865 0.118204884 0.104164876 0.18451934 0.31318462 0.15069012 0.2519274 0.14178993
0.055403735 0.09653797 0.030167444 0.16361529 0.029384376 0.13630624 0.03540207 0.25400984
0.35603017 0.3564774 0.16019107 0.23118319 0.16149819 0.0039230613 0.106727265 0.35134843
0.26107618 0.20955022 0.112360455 0.09177912 0.027947273 0.13536671 0.030920785 0.13630867
0.16071488 0.03374293 0.044711154 0.33335716 0.10337148 0.05655151 0.19129568 0.32344362
0.31651074 0.2065269 0.21116352 0.35126555 0.2703053 0.32961255 0.27654424 0.31005362
0.23041326 0.30808142 0.14900437 0.24071687 0.2957362 0.2726134 0.12468919 0.069888376
0.2799019 0.09467026 0.053030785 0.34692854 0.23631833 0.35870102 0.10825168 0.37680295
0.10473676 0.31524047 0.3569463 0.33903524 0.03350769 0.17315021 0.26988435 0.1847137
0.2158716 0.26331407 0.093396045 0.3332197 0.10377651 0.28760836 0.13657337 0.16812807
0.30417052 0.2598322 0.20816663 0.14879352 0.111748576 0.21242824 0.31684473 0.15000132
0.13715428 0.074651435 0.20834085 0.30595687 0.1083749 0.09313473 0.27243868 0.09553389
0.20452836 0.31480667 0.024442792 0.1841453 0.27138358 0.37306744 0.29948503 0.13474734
0.18301016 0.26481715 0.28861174 0.07266374 0.16996801 0.32509178 0.21261512 0.28946552
0.111747384 0.27429748 0.36696187 0.2852329 0.28667346 0.06050208 0.19915442 0.30620104
0.16701023 0.014874772 0.22875147 0.2946869 0.09866312 0.121008635 0.31333032 0.013528509
0.079273954 0.208747 0.057751235 0.218806 0.3036504 0.016103579 0.096737035 0.18194193
0.23517562 0.084504455 0.2589585 0.18581383 0.046932936 0.16013874 0.05187113 0.189982

arith.constant2 f4 [11]
00000000: fbe5 fc3d e2ea 0b3e 5fb5 e53d 215a 023e
00000010: 6a50 203e c8d4 173e aaaf 1c3e 6494 193e
00000020: 7e62 1e3e b8f6 1c3e 9b54 193e
0.12348553 0.1366382 0.112162344 0.12729694 0.15655676 0.14827263 0.15301386 0.14998013
0.1546726 0.1532849 0.1497368

arith.constant3 f4 [64]
00000000: bffd 2c3e 7d54 463e 139b 9f3c be43 583e
00000010: 3f90 413e 7f2d 0c3e 9c98 343e 7266 c23d
00000020: ae8f 493e 339c 5a3e ff97 3e3e b885 483e
00000030: ae49 2f3e 4f49 2e3e e06f 3f3e 0bb8 313e
00000040: b9f5 4b3e 7558 4c3e c29c 4c3e b7f1 173e
00000050: f5b6 0c3e 98b7 493e f059 313e 32c8 583e
00000060: 59c4 423e e6e9 fe3d 3126 483e fef5 523e
00000070: 1c7d 23bc 2096 f23c 245a a43b e17d 553e
00000080: 96d8 463e a926 6cbc dc58 393e 1506 f63d
00000090: ded4 4e3e 8b68 253e f28d 493e b6ec 28bc
000000a0: e3b2 3f3e 6a96 543e 1105 a1bc 9d24 a53c
000000b0: a243 413e 0b62 3b3e aa6d 3f3e 2948 253e
000000c0: 72b1 203e e6bc 4d3e 3144 3f3e 8fd2 14bd
000000d0: 31bb b7bc 6c10 4d3e 8451 2c3e 63a6 483e
000000e0: 2e7e 613e 9b06 0c3e 1524 303e 76f8 4f3e
000000f0: cf99 3e3e 232c 4a3e 2e0b 4f3e a6fe 3b3e
0.16893671 0.19368167 0.019483125 0.21119592 0.18902682 0.1368923 0.17636341 0.09492196
0.19683716 0.21348648 0.1861267 0.1958226 0.1711795 0.17020153 0.1869502 0.17355363
0.19917955 0.19955619 0.19981673 0.148383 0.13741668 0.19698942 0.17319465 0.21170118
0.19020213 0.12446956 0.19545819 0.20601651 -0.009978559 0.0296126 0.0050156284 0.208488
0.19418558 -0.014413514 0.18100303 0.12012879 0.2019839 0.16153161 0.19683054 -0.010310343
0.18720584 0.20760503 -0.019655736 0.02015906 0.18873456 0.18299119 0.18694177 0.16140808
0.1569269 0.2009159 0.18678357 -0.036333617 -0.022428127 0.20025796 0.1682797 0.19594721
0.2202079 0.13674395 0.17201264 0.20309624 0.18613361 0.197434 0.20219108 0.1835886

sequential_1_1/dense_3_1/BiasAdd/ReadVariableOp f4 [128]
00000000: 449c 803e 9e38 7d3e 2a2a 803e 23fa 7b3e
00000010: a736 6d3e 8941 7f3e bdee 7a3e bf79 7d3e
00000020: f57c 7e3e 4fd8 343e 1754 7f3e d107 5f3e
00000030: 6fe0 803e b2db 783e 5edf 813e 8524 803e
00000040: 2735 7d3e e8dd 093e 1a6b 7c3e 4cf6 793e
00000050: 9ec8 803e 0b00 7a3e 4adb 7a3e abbe 243e
00000060: 9726 613e e32a 773e b06d 7e3e 4a88 683e
00000070: 6117 443e 2eec 7d3e 5e40 523e b235 6e3e
00000080: c4eb 4f3e 8726 7c3e a725 5e3e 908f 3c3e
00000090: 2181 7f3e 9497 753e 0a4f 7d3e 3683 503e
000000a0: 3ec1 7c3e ce1d 773e 6366 813e e64a 693e
000000b0: 8c7e 513e f8b6 773e 2823 7c3e f81b 623e
000000c0: 0998 793e 1563 7e3e c88f 633e ad7a 2f3e
000000d0: 8d5b 713e 375a 483e a983 743e 5b75 803e
000000e0: 1984 803e 73ce 7a3e a681 7d3e 9713 7a3e
000000f0: cee4 803e 1d52 7b3e 2d5d 4c3e ea75 473e
00000100: 0c12 793e 973a 5b3e 5f21 653e 8e31 803e
00000110: 8fa7 233e 19e5 803e cea9 7d3e 2645 6a3e
00000120: 0236 193e 0e09 703e eb20 803e 06eb 583e
00000130: d4d8 7c3e 3ec6 7c3e 4c7e 723e 8fcd 783e
00000140: 0ecd 803e d4d8 7a3e aa3c 293e 9429 5f3e
00000150: 02d7 7d3e 8071 633e f3b9 7d3e 2fba 5d3e
00000160: 8660 743e e100 713e 482f 7d3e 8bff 7b3e
00000170: 63bf 7c3e 999b 673e 5c80 7c3e b211 813e
00000180: ea98 5d3e 986b 7e3e dac5 7b3e 768d 5d3e
00000190: 2d4c 7d3e ef37 4a3e 4617 563e d09c 803e
000001a0: dd54 7c3e 2df4 5f3e a682 7c3e 64be 5c3e
000001b0: a787 7c3e 9958 813e 56b5 803e 3632 7e3e
000001c0: b224 7f3e 4bd5 593e 11d5 6d3e db17 3d3e
000001d0: 220d 763e 9807 683e 444f 7e3e 12e8 7e3e
000001e0: 2062 7c3e 3124 7e3e efdb 763e ee52 743e
000001f0: 7e1e 673e 504b 5c3e b0d3 753e c551 7e3e
0.2511922 0.24728629 0.2503217 0.24607138 0.2316538 0.24927343 0.24505134 0.24753474
0.24852355 0.1766064 0.24934421 0.21780325 0.2517123 0.24302557 0.25365728 0.25027862
0.24727307 0.13463557 0.24650231 0.24410361 0.2515306 0.24414079 0.24497715 0.16088359
0.21987377 0.24137454 0.2484653 0.2270824 0.19149543 0.24797127 0.20532367 0.2326267
0.20304781 0.24624072 0.2169405 0.1841414 0.24951603 0.23983604 0.24737182 0.20362553
0.24683091 0.24132463 0.25273427 0.22782478 0.2045843 0.24190891 0.24622786 0.22080982
0.24374403 0.24842484 0.22222817 0.17136641 0.2357008 0.19565664 0.2387835 0.25089535
0.25100783 0.24492817 0.24756488 0.24421535 0.25174564 0.24543042 0.19957419 0.19478574
0.2432329 0.21409069 0.22376011 0.25037807 0.15981887 0.25174788 0.24771807 0.2287794
0.14962009 0.23440954 0.25025114 0.21183404 0.24692088 0.24684998 0.23680991 0.24297164
0.25156444 0.24496776 0.16527048 0.21793205 0.2478905 0.22211266 0.24777965 0.21653055
0.23864946 0.23535492 0.24725068 0.246092 0.24682383 0.2261795 0.2465834 0.25208813
0.21640363 0.24845731 0.24587193 0.21635994 0.2473609 0.197479 0.20907316 0.25119638
0.24641748 0.2187049 0.24659213 0.21557003 0.24661122 0.25262907 0.25138348 0.24823841
0.24916342 0.21272771 0.2322581 0.18466131 0.24028447 0.22659147 0.24834925 0.24893215
0.24646807 0.24818493 0.24107336 0.2385976 0.22570226 0.21513104 0.24006534 0.2483588

sequential_1_1/dense_3_1/MatMul f4 [128, 39]
00000000: f8ba b53e 83fb a03c 9970 9b3e 9311 8c3e
00000010: 1017 513e 446d 8e3e 8dfd fe3d deb7 7d3e
00000020: da0d e53d b0e6 433e f9f8 97bd 4534 703e
00000030: d11f 13bc 9f89 293d 1fe7 a43e 3a16 42bd
00000040: c191 3f3e face 5ebb 92cb 153e 7812 b43d
00000050: fd85 2b3d a820 08bd 56e0 823e 1d03 a53e
00000060: 7b8d 833e 3259 693d 5053 c13e ff41 323e
00000070: ce3f 033d 62c9 8a3e 04ad 9d3e c234 af3e
00000080: 6ea2 ec3c c560 263e 0865 833d 3b3f 463d
00000090: 6d31 6c3e 1665 583e 78a3 323e 8766 ba3e
000000a0: 041c 8b3e 07b4 ae3e 547b 093d 3c3b 7f3e
000000b0: 9c6a 653e ffe6 a93e b6ca 9b3e e787 f63d
000000c0: d7c3 b23c 9e90 653e e6c9 403e 2c8a c23e
000000d0: 71fc 8b3e 405f 873c cd3b a83e 96b5 323e
000000e0: 4510 2c3e 4891 50bd 5ef1 973d e7e2 733e
000000f0: 4800 583e 2985 903e 2396 b83e dba6 08be
00000100: 678e a93e 9bd3 b2bd cfd6 bb3c 909b 923e
00000110: 0104 2e3e 9728 163e f6a1 173e c4ad b93e
00000120: 7831 ec3d 5ff2 733d 3a36 b93e cea9 97bd
00000130: ed26 4c3e 1aa5 9e3e 11cb 393d 0b3b 853d
00000140: bc28 953e 0267 573e 4bc1 dd3d 7cdc 863e
00000150: 1c6b 2b3d f31a 863e 11c5 2bbd d572 a3bd
00000160: 8075 4e3e 146d 9b3c 2d4f 83bc 5a26 8abd
00000170: a835 fdbc 441e a53e be32 0dbe 7527 293d
00000180: 1d34 443e b713 0c3e fc61 993e e79a 30bd
00000190: 66e1 543e 2ace 4cbd db55 06bc 8e71 923e
000001a0: 5f40 a53e 369d 7e3e 5e11 553d a916 863d
000001b0: 508c 99bd e60c 953d 84c3 ab3e 54a3 523e
000001c0: 4e11 2fbd fc30 0c3e 3b95 853e 2aef da3d
000001d0: b1c4 533c dd37 ba3e 5946 e93b 0a68 f73b
000001e0: 49eb a03e 8ffe 9e3e 79d8 9e3d 449a 253e
000001f0: 70a6 9fbd 8937 123e 33b5 8c3e 993b a63e
00000200: 87ed 94bd 42bf 4e3e 363d 473e 72a0 60bd
00000210: 030a 463e 90ff 94bc 8aae 9c3e 3cd3 0dbe
00000220: d77d a63d 65fb 673e b546 923e 1e34 753b
00000230: fada 05be e03e 143e 2ad1 173e bcf0 8c3e
00000240: 1f88 733d c35a bebd 9e82 483e fc64 82bd
00000250: 065f 2a3d 3aae 20bc fdae d43d 2d5e b53e
00000260: e628 3e3e 6cd3 4e3c bb06 723e 5e50 a63e
00000270: fdc5 033e 60d0 7a3e 10cc 9d3e ab8b 3e3e
00000280: 5a41 9bbd 2be3 f4bd dadc 853e a61b 283e
00000290: 2915 6b3c e793 ef3d 6a2f 4c3e abe6 9a3d
000002a0: 8242 8bbd 299e a13d 71e0 013e 64de a6bc
000002b0: 139c 003e a2a8 7c3c ca19 7fbd 73f3 54bc
000002c0: 561b 763e 2090 893e d768 553e 730e 56bc
000002d0: 0e1f 3f3e 14b1 b13e 67d6 bc3d 842d 7cbc
000002e0: 2f52 e1bd 86db 663d 8f5f 3a3e 04e8 083d
000002f0: 4285 7d3e 84af 803e 9f48 a43d 46ef aa3e
00000300: bf6f 5c3d 1a7f 143d 6a0b 6a3e 1445 1e3e
00000310: 4bdf 9b3e 41c2 8cbd 21d4 8e3e b110 9d3e
00000320: 2381 a43d fb24 cb3d 0927 39bd fa65 1f3d
00000330: 3ffa 263e 3003 4b3e f973 4c3e c54e a43d
00000340: 3f0d b3bd b1b0 a73e 9a94 693e f6b9 203c
00000350: e6dd 24be 8aae dc3b 0422 24bd dc83 363e
00000360: 2c60 30bd 3234 3dbe 7f30 833e 7ef6 a63e
00000370: 14a1 6b3e c28c b13e 7145 39be 4cb7 b5bb
00000380: cef7 9a3e 2237 a63e 167f 303e b20c f13b
00000390: 80bb ed3d d504 1c3e 0e03 a73e ee14 833e
000003a0: 136a 053e 791b 363e 808f 1a3e b897 b2bd
000003b0: 26f2 aa3e f58f 9a3e c1c2 783e f401 eb3d
000003c0: 9679 ad3e 5eec 0abd da8d b73e 5971 973d
000003d0: 8820 a13e 7542 373e 930e bc3e f830 4d3d
000003e0: 4019 c2bc faf8 b53e 4a0a bf3d 9bb9 943e
000003f0: 217a e23d d02c f23d 3767 5d3e b2cb b43e
0.35494208 0.01965118 0.30359343 0.27357158 0.20418954 0.27817738 0.12450705 0.24777171
0.111842826 0.19130969 -0.07420535 0.23457439 -0.008979754 0.04139101 0.3220758 -0.04738448
0.18707944 -0.003399788 0.14628437 0.08792585 0.041875828 -0.03323427 0.2556178 0.32228938
0.2569388 0.05696983 0.37758875 0.17407988 0.03204327 0.27106768 0.30796063 0.3421994
0.028886046 0.16247852 0.064157546 0.048400145 0.2306573 0.21132311 0.17445171 0.36406347
0.27169812 0.34121725 0.03356488 0.2492494 0.2240395 0.3318405 0.30428094 0.1203764
0.0218219 0.22418448 0.18827018 0.37996042 0.27341035 0.01652491 0.32858124 0.17452082
0.16803081 -0.0509198 0.07419084 0.23817025 0.21093857 0.28226593 0.36052045 -0.133449
0.33116457 -0.08731767 0.022929577 0.2863431 0.16993715 0.14663921 0.14807877 0.36265385
0.11532873 0.059557315 0.36174184 -0.074054345 0.19936724 0.30985337 0.045359675 0.06505402
0.2913264 0.21035388 0.10827883 0.2634009 0.041850194 0.26192436 -0.041935984 -0.07980887
0.2016201 0.018972911 -0.016028965 -0.06745596 -0.030909374 0.32249653 -0.13788888 0.041297395
0.19160505 0.13679396 0.2995757 -0.043116476 0.20789108 -0.0500013 -0.0081991805 0.2860226
0.32275674 0.24864659 0.052018516 0.06547291 -0.074974656 0.07277851 0.33547604 0.20570117
-0.042741112 0.13690561 0.26090416 0.10690148 0.012925313 0.36370745 0.007118982 0.007550244
0.31429508 0.31053588 0.07756133 0.16172129 -0.07795417 0.14278997 0.27481994 0.32467344
-0.07271867 0.20190147 0.19456944 -0.054840513 0.19339757 -0.018188268 0.30601913 -0.13850111
0.08129471 0.22654493 0.2856957 0.0037415097 -0.13071814 0.1447711 0.14825884 0.27527416
0.059455987 -0.09294655 0.19581077 -0.063669175 0.041594528 -0.009807164 0.10384939 0.35423413
0.18570289 0.012623649 0.2363538 0.3248319 0.12868495 0.24493551 0.3081975 0.18607967
-0.07580824 -0.11957391 0.2614506 0.16416797 0.014348307 0.11698132 0.19939962 0.07563528
-0.06799795 0.07891495 0.12683274 -0.020369716 0.12559538 0.015421065 -0.062280454 -0.012997496
0.24033865 0.2686777 0.20840774 -0.013064968 0.1866419 0.34705412 0.092205815 -0.015391711
-0.110020034 0.056361698 0.18200515 0.033424392 0.24757865 0.25133908 0.08021664 0.33385676
0.053817507 0.036254026 0.22855917 0.15456039 0.30443797 -0.068729885 0.27896217 0.30676797
0.080324434 0.09919163 -0.045203242 0.03891561 0.16306399 0.19825435 0.19966115 0.080228366
-0.08742761 0.32751992 0.22810593 0.009809962 -0.16100273 0.006734674 -0.040071502 0.17823738
-0.043060467 -0.18476942 0.25622937 0.32609934 0.23010665 0.34677702 -0.18092896 -0.0055455323
0.30267185 0.32463938 0.1723598 0.0073562497 0.116080284 0.15236218 0.32619518 0.25601906
0.13028745 0.17783917 0.15093803 -0.08720344 0.3338787 0.30187955 0.24293043 0.11474982
0.33881825 -0.033916824 0.35850412 0.07394666 0.31470132 0.17896445 0.3672987 0.05009553
-0.02369368 0.35541517 0.09328134 0.29047856 0.110584505 0.118249536 0.21621405 0.35311657
